…
2023-03-19 09:54:17,228 - INFO:   --p 0.2
2023-03-19 09:54:17,228 - INFO:   --gamma 1.0
2023-03-19 09:54:17,228 - INFO:   --train_decay False
2023-03-19 09:54:17,228 - INFO:   --train_thresh False
2023-03-19 09:54:17,228 - INFO:   --device cuda:1
2023-03-19 09:54:17,228 - INFO:   --T 2
2023-03-19 09:54:17,228 - INFO:   --scheduler COSINE
2023-03-19 09:54:17,228 - INFO:   --lr_milestone (90, 210, 270, 285)
2023-03-19 09:54:17,228 - INFO:   --ns_milestone (0, 0.2, 0.4, 0.6, 0.8, 0.95)
2023-03-19 09:54:17,228 - INFO:   --log_interval 100
2023-03-19 09:54:23,148 - INFO: ResNet(
  (conv0): Sequential(
    (0): tdLayer(
      (layer): Conv2d(3, 64, kernel_size=(3, 3), stride=(1, 1), padding=(1, 1), bias=False)
    )
    (1): tdLayer(
      (layer): BatchNorm2d(64, eps=1e-05, momentum=0.1, affine=True, track_running_stats=True)
    )
    (2): LIFLayer(
      (cell): LIFCell(
        (spike_fn): EfficientNoisySpikeII(
          (inv_sg): InvSigmoid()
        )
      )
    )
  )
  (layer1): Sequential(
    (0): BasicBlock(
      (conv1): tdLayer(
        (layer): Conv2d(64, 64, kernel_size=(3, 3), stride=(1, 1), padding=(1, 1), bias=False)
      )
      (bn1): tdLayer(
        (layer): BatchNorm2d(64, eps=1e-05, momentum=0.1, affine=True, track_running_stats=True)
      )
      (spike1): LIFLayer(
        (cell): LIFCell(
          (spike_fn): EfficientNoisySpikeII(
            (inv_sg): InvSigmoid()
          )
        )
      )
      (conv2): tdLayer(
        (layer): Conv2d(64, 64, kernel_size=(3, 3), stride=(1, 1), padding=(1, 1), bias=False)
      )
      (bn2): tdLayer(
        (layer): BatchNorm2d(64, eps=1e-05, momentum=0.1, affine=True, track_running_stats=True)
      )
      (shortcut): Sequential()
      (spike2): LIFLayer(
        (cell): LIFCell(
          (spike_fn): EfficientNoisySpikeII(
            (inv_sg): InvSigmoid()
          )
        )
      )
    )
    (1): BasicBlock(
      (conv1): tdLayer(
        (layer): Conv2d(64, 64, kernel_size=(3, 3), stride=(1, 1), padding=(1, 1), bias=False)
      )
      (bn1): tdLayer(
        (layer): BatchNorm2d(64, eps=1e-05, momentum=0.1, affine=True, track_running_stats=True)
      )
      (spike1): LIFLayer(
        (cell): LIFCell(
          (spike_fn): EfficientNoisySpikeII(
            (inv_sg): InvSigmoid()
          )
        )
      )
      (conv2): tdLayer(
        (layer): Conv2d(64, 64, kernel_size=(3, 3), stride=(1, 1), padding=(1, 1), bias=False)
      )
      (bn2): tdLayer(
        (layer): BatchNorm2d(64, eps=1e-05, momentum=0.1, affine=True, track_running_stats=True)
      )
      (shortcut): Sequential()
      (spike2): LIFLayer(
        (cell): LIFCell(
          (spike_fn): EfficientNoisySpikeII(
            (inv_sg): InvSigmoid()
          )
        )
      )
    )
  )
  (layer2): Sequential(
    (0): BasicBlock(
      (conv1): tdLayer(
        (layer): Conv2d(64, 128, kernel_size=(3, 3), stride=(2, 2), padding=(1, 1), bias=False)
      )
      (bn1): tdLayer(
        (layer): BatchNorm2d(128, eps=1e-05, momentum=0.1, affine=True, track_running_stats=True)
      )
      (spike1): LIFLayer(
        (cell): LIFCell(
          (spike_fn): EfficientNoisySpikeII(
            (inv_sg): InvSigmoid()
          )
        )
      )
      (conv2): tdLayer(
        (layer): Conv2d(128, 128, kernel_size=(3, 3), stride=(1, 1), padding=(1, 1), bias=False)
      )
      (bn2): tdLayer(
        (layer): BatchNorm2d(128, eps=1e-05, momentum=0.1, affine=True, track_running_stats=True)
      )
      (shortcut): Sequential(
        (0): tdLayer(
          (layer): Conv2d(64, 128, kernel_size=(1, 1), stride=(2, 2), bias=False)
        )
        (1): tdLayer(
          (layer): BatchNorm2d(128, eps=1e-05, momentum=0.1, affine=True, track_running_stats=True)
        )
      )
      (spike2): LIFLayer(
        (cell): LIFCell(
          (spike_fn): EfficientNoisySpikeII(
            (inv_sg): InvSigmoid()
          )
        )
      )
    )
    (1): BasicBlock(
      (conv1): tdLayer(
        (layer): Conv2d(128, 128, kernel_size=(3, 3), stride=(1, 1), padding=(1, 1), bias=False)
      )
      (bn1): tdLayer(
        (layer): BatchNorm2d(128, eps=1e-05, momentum=0.1, affine=True, track_running_stats=True)
      )
      (spike1): LIFLayer(
        (cell): LIFCell(
          (spike_fn): EfficientNoisySpikeII(
            (inv_sg): InvSigmoid()
          )
        )
      )
      (conv2): tdLayer(
        (layer): Conv2d(128, 128, kernel_size=(3, 3), stride=(1, 1), padding=(1, 1), bias=False)
      )
      (bn2): tdLayer(
        (layer): BatchNorm2d(128, eps=1e-05, momentum=0.1, affine=True, track_running_stats=True)
      )
      (shortcut): Sequential()
      (spike2): LIFLayer(
        (cell): LIFCell(
          (spike_fn): EfficientNoisySpikeII(
            (inv_sg): InvSigmoid()
          )
        )
      )
    )
  )
  (layer3): Sequential(
    (0): BasicBlock(
      (conv1): tdLayer(
        (layer): Conv2d(128, 256, kernel_size=(3, 3), stride=(2, 2), padding=(1, 1), bias=False)
      )
      (bn1): tdLayer(
        (layer): BatchNorm2d(256, eps=1e-05, momentum=0.1, affine=True, track_running_stats=True)
      )
      (spike1): LIFLayer(
        (cell): LIFCell(
          (spike_fn): EfficientNoisySpikeII(
            (inv_sg): InvSigmoid()
          )
        )
      )
      (conv2): tdLayer(
        (layer): Conv2d(256, 256, kernel_size=(3, 3), stride=(1, 1), padding=(1, 1), bias=False)
      )
      (bn2): tdLayer(
        (layer): BatchNorm2d(256, eps=1e-05, momentum=0.1, affine=True, track_running_stats=True)
      )
      (shortcut): Sequential(
        (0): tdLayer(
          (layer): Conv2d(128, 256, kernel_size=(1, 1), stride=(2, 2), bias=False)
        )
        (1): tdLayer(
          (layer): BatchNorm2d(256, eps=1e-05, momentum=0.1, affine=True, track_running_stats=True)
        )
      )
      (spike2): LIFLayer(
        (cell): LIFCell(
          (spike_fn): EfficientNoisySpikeII(
            (inv_sg): InvSigmoid()
          )
        )
      )
    )
    (1): BasicBlock(
      (conv1): tdLayer(
        (layer): Conv2d(256, 256, kernel_size=(3, 3), stride=(1, 1), padding=(1, 1), bias=False)
      )
      (bn1): tdLayer(
        (layer): BatchNorm2d(256, eps=1e-05, momentum=0.1, affine=True, track_running_stats=True)
      )
      (spike1): LIFLayer(
        (cell): LIFCell(
          (spike_fn): EfficientNoisySpikeII(
            (inv_sg): InvSigmoid()
          )
        )
      )
      (conv2): tdLayer(
        (layer): Conv2d(256, 256, kernel_size=(3, 3), stride=(1, 1), padding=(1, 1), bias=False)
      )
      (bn2): tdLayer(
        (layer): BatchNorm2d(256, eps=1e-05, momentum=0.1, affine=True, track_running_stats=True)
      )
      (shortcut): Sequential()
      (spike2): LIFLayer(
        (cell): LIFCell(
          (spike_fn): EfficientNoisySpikeII(
            (inv_sg): InvSigmoid()
          )
        )
      )
    )
  )
  (layer4): Sequential(
    (0): BasicBlock(
      (conv1): tdLayer(
        (layer): Conv2d(256, 512, kernel_size=(3, 3), stride=(2, 2), padding=(1, 1), bias=False)
      )
      (bn1): tdLayer(
        (layer): BatchNorm2d(512, eps=1e-05, momentum=0.1, affine=True, track_running_stats=True)
      )
      (spike1): LIFLayer(
        (cell): LIFCell(
          (spike_fn): EfficientNoisySpikeII(
            (inv_sg): InvSigmoid()
          )
        )
      )
      (conv2): tdLayer(
        (layer): Conv2d(512, 512, kernel_size=(3, 3), stride=(1, 1), padding=(1, 1), bias=False)
      )
      (bn2): tdLayer(
        (layer): BatchNorm2d(512, eps=1e-05, momentum=0.1, affine=True, track_running_stats=True)
      )
      (shortcut): Sequential(
        (0): tdLayer(
          (layer): Conv2d(256, 512, kernel_size=(1, 1), stride=(2, 2), bias=False)
        )
        (1): tdLayer(
          (layer): BatchNorm2d(512, eps=1e-05, momentum=0.1, affine=True, track_running_stats=True)
        )
      )
      (spike2): LIFLayer(
        (cell): LIFCell(
          (spike_fn): EfficientNoisySpikeII(
            (inv_sg): InvSigmoid()
          )
        )
      )
    )
    (1): BasicBlock(
      (conv1): tdLayer(
        (layer): Conv2d(512, 512, kernel_size=(3, 3), stride=(1, 1), padding=(1, 1), bias=False)
      )
      (bn1): tdLayer(
        (layer): BatchNorm2d(512, eps=1e-05, momentum=0.1, affine=True, track_running_stats=True)
      )
      (spike1): LIFLayer(
        (cell): LIFCell(
          (spike_fn): EfficientNoisySpikeII(
            (inv_sg): InvSigmoid()
          )
        )
      )
      (conv2): tdLayer(
        (layer): Conv2d(512, 512, kernel_size=(3, 3), stride=(1, 1), padding=(1, 1), bias=False)
      )
      (bn2): tdLayer(
        (layer): BatchNorm2d(512, eps=1e-05, momentum=0.1, affine=True, track_running_stats=True)
      )
      (shortcut): Sequential()
      (spike2): LIFLayer(
        (cell): LIFCell(
          (spike_fn): EfficientNoisySpikeII(
            (inv_sg): InvSigmoid()
          )
        )
      )
    )
  )
  (avg_pool): tdLayer(
    (layer): AdaptiveAvgPool2d(output_size=(1, 1))
  )
  (classifier): Sequential(
    (0): tdLayer(
      (layer): Linear(in_features=512, out_features=100, bias=True)
    )
    (1): Readout()
  )
)
2023-03-19 09:54:38,969 - INFO: 
Epoch [0/300], Step [100/390], Loss: 0.03681
2023-03-19 09:54:38,969 - INFO: Time elasped: 15.817720174789429
2023-03-19 09:54:53,420 - INFO: 
Epoch [0/300], Step [200/390], Loss: 0.03659
2023-03-19 09:54:53,420 - INFO: Time elasped: 30.268627643585205
2023-03-19 09:55:07,967 - INFO: 
Epoch [0/300], Step [300/390], Loss: 0.03660
…
